exploring_tf_lite/models/mnist_model_quant.tflite (tflite, 104624 bytes, 2 tensors)

sequential_6/dense_7/MatMul i1 [10, 128] scale=0.0075926916 zero_point=0
000000 f9 e8 0d fc 21 09 ba 16 d4 14 e8 d5 8c b9 c5 1b
       -0.05314884 -0.1822246 0.09870499 -0.030370766 0.25055882 0.06833422 -0.5314884 0.16703922 -0.33407843 0.15185383 -0.1822246 -0.32648572 -0.8807522 -0.5390811 -0.4479688 0.20500267
000010 0a 27 f4 e5 b9 dc 19 1c 25 e4 cb e4 c3 d6 07 13
       0.075926915 0.29611498 -0.0911123 -0.20500267 -0.5390811 -0.2733369 0.1898173 0.21259536 0.2809296 -0.21259536 -0.40241265 -0.21259536 -0.4631542 -0.31889305 0.05314884 0.14426114
000020 e2 0d 05 06 16 f4 eb 10 04 2d f5 c3 09 0d 13 df
       -0.22778074 0.09870499 0.037963457 0.04555615 0.16703922 -0.0911123 -0.15944652 0.121483065 0.030370766 0.3416711 -0.08351961 -0.4631542 0.06833422 0.09870499 0.14426114 -0.25055882
000030 9a e8 0f ee ed f2 f7 f0 0b 2a f5 20 ef bd d2 e8
       -0.77445453 -0.1822246 0.11389037 -0.13666844 -0.14426114 -0.10629768 -0.06833422 -0.121483065 0.08351961 0.31889305 -0.08351961 0.24296613 -0.12907575 -0.5087103 -0.34926382 -0.1822246
000040 29 13 e3 0e 0d e2 03 11 f0 1d 01 e1 19 0b df aa
       0.31130037 0.14426114 -0.22018805 0.10629768 0.09870499 -0.22778074 0.022778075 0.12907575 -0.121483065 0.22018805 0.0075926916 -0.23537344 0.1898173 0.08351961 -0.25055882 -0.65297145
000050 b0 17 19 19 f8 1f ba 0c 0d f4 1b af f2 1d f7 ef
       -0.6074153 0.17463191 0.1898173 0.1898173 -0.060741533 0.23537344 -0.5314884 0.0911123 0.09870499 -0.0911123 0.20500267 -0.615008 -0.10629768 0.22018805 -0.06833422 -0.12907575
000060 b7 d9 18 0a f9 27 ff 2c 36 0e e3 05 f9 1f be da
       -0.5542665 -0.29611498 0.1822246 0.075926915 -0.05314884 0.29611498 -0.0075926916 0.33407843 0.41000533 0.10629768 -0.22018805 0.037963457 -0.05314884 0.23537344 -0.50111765 -0.28852227
000070 28 e6 c4 07 a4 19 f0 e5 00 f1 d8 fc a3 ea 1a d2
       0.30370766 -0.19740999 -0.4555615 0.05314884 -0.69852763 0.1898173 -0.121483065 -0.20500267 0.0 -0.11389037 -0.30370766 -0.030370766 -0.7061203 -0.16703922 0.19740999 -0.34926382
000080 dc 24 be dc e2 f5 f5 df d8 f3 da 07 04 5c 28 15
       -0.2733369 0.2733369 -0.50111765 -0.2733369 -0.22778074 -0.08351961 -0.08351961 -0.25055882 -0.30370766 -0.09870499 -0.28852227 0.05314884 0.030370766 0.69852763 0.30370766 0.15944652
000090 d4 34 dc 0c 06 06 fe c6 dd 1b e2 41 07 21 e4 0e
       -0.33407843 0.39481997 -0.2733369 0.0911123 0.04555615 0.04555615 -0.015185383 -0.4403761 -0.2657442 0.20500267 -0.22778074 0.49352494 0.05314884 0.25055882 -0.21259536 0.10629768
0000a0 d9 d9 42 f5 0d c7 f9 cc e3 18 13 2c 59 01 d9 25
       -0.29611498 -0.29611498 0.50111765 -0.08351961 0.09870499 -0.43278342 -0.05314884 -0.39481997 -0.22018805 0.1822246 0.14426114 0.33407843 0.67574954 0.0075926916 -0.29611498 0.2809296
0000b0 14 17 15 dc e3 10 c6 db 1d 3a 15 3d dd 0f dd 10
       0.15185383 0.17463191 0.15944652 -0.2733369 -0.22018805 0.121483065 -0.4403761 -0.2809296 0.22018805 0.4403761 0.15944652 0.4631542 -0.2657442 0.11389037 -0.2657442 0.121483065
0000c0 e4 e7 0b f8 03 2a fe e1 fb 18 da f2 fc 33 0b 0e
       -0.21259536 -0.1898173 0.08351961 -0.060741533 0.022778075 0.31889305 -0.015185383 -0.23537344 -0.037963457 0.1822246 -0.28852227 -0.10629768 -0.030370766 0.38722727 0.08351961 0.10629768
0000d0 1b 0f 92 cd 30 04 15 b9 c6 0d 0d 1a 15 c7 0d d7
       0.20500267 0.11389037 -0.8351961 -0.38722727 0.3644492 0.030370766 0.15944652 -0.5390811 -0.4403761 0.09870499 0.09870499 0.19740999 0.15944652 -0.43278342 0.09870499 -0.31130037
0000e0 0c ec 05 e1 03 f6 e6 c4 ae d5 fa f6 13 f7 10 06
       0.0911123 -0.15185383 0.037963457 -0.23537344 0.022778075 -0.075926915 -0.19740999 -0.4555615 -0.62260073 -0.32648572 -0.04555615 -0.075926915 0.14426114 -0.06833422 0.121483065 0.04555615
0000f0 29 24 fe 13 bf de 1f a8 b5 f7 0a 09 e4 cf f2 10
       0.31130037 0.2733369 -0.015185383 0.14426114 -0.49352494 -0.2581515 0.23537344 -0.66815686 -0.56945187 -0.06833422 0.075926915 0.06833422 -0.21259536 -0.37204188 -0.10629768 0.121483065

sequential_6/dense_6/MatMul i1 [128, 784] scale=0.007001597 zero_point=0
000000 f8 fc fb 04 f7 fa 00 07 ff f7 05 fe fd 0a 08 fd
       -0.056012776 -0.028006388 -0.035007983 0.028006388 -0.06301437 -0.04200958 0.0 0.04901118 -0.007001597 -0.06301437 0.035007983 -0.014003194 -0.02100479 0.07001597 0.056012776 -0.02100479
000010 ff f7 04 04 f8 04 f8 fe 0a 04 02 f9 fc 07 f9 09
       -0.007001597 -0.06301437 0.028006388 0.028006388 -0.056012776 0.028006388 -0.056012776 -0.014003194 0.07001597 0.028006388 0.014003194 -0.04901118 -0.028006388 0.04901118 -0.04901118 0.06301437
000020 01 04 07 fb f6 02 fe 07 fd 0a 06 fc 0a 0a fe f7
       0.007001597 0.028006388 0.04901118 -0.035007983 -0.07001597 0.014003194 -0.014003194 0.04901118 -0.02100479 0.07001597 0.04200958 -0.028006388 0.07001597 0.07001597 -0.014003194 -0.06301437
000030 fe f4 f9 02 03 fd 00 00 00 03 f6 02 f5 fa 08 05
       -0.014003194 -0.08401916 -0.04901118 0.014003194 0.02100479 -0.02100479 0.0 0.0 0.0 0.02100479 -0.07001597 0.014003194 -0.07701757 -0.04200958 0.056012776 0.035007983
000040 0a 05 09 14 15 01 10 eb dc e8 f6 f5 f1 f8 f0 f8
       0.07001597 0.035007983 0.06301437 0.14003193 0.14703354 0.007001597 0.11202555 -0.14703354 -0.2520575 -0.16803832 -0.07001597 -0.07701757 -0.10502396 -0.056012776 -0.11202555 -0.056012776
000050 03 fc f7 f7 05 fc f6 fc 03 0b 09 12 13 20 24 16
       0.02100479 -0.028006388 -0.06301437 -0.06301437 0.035007983 -0.028006388 -0.07001597 -0.028006388 0.02100479 0.07701757 0.06301437 0.12602875 0.13303034 0.2240511 0.2520575 0.15403514
000060 18 1e 14 11 ff f2 f9 f2 f9 ff 06 0d 05 10 17 08
       0.16803832 0.21004792 0.14003193 0.119027145 -0.007001597 -0.09802236 -0.04901118 -0.09802236 -0.04901118 -0.007001597 0.04200958 0.09102076 0.035007983 0.11202555 0.16103673 0.056012776
000070 06 fa 0b 0b f9 00 10 1f 16 26 25 20 1d 18 1b 06
       0.04200958 -0.04200958 0.07701757 0.07701757 -0.04901118 0.0 0.11202555 0.21704951 0.15403514 0.26606068 0.2590591 0.2240511 0.2030463 0.16803832 0.18904312 0.04200958
000080 07 14 06 fc 0a 05 06 fb 0f 10 fb ec f9 f7 06 0d
       0.04901118 0.14003193 0.04200958 -0.028006388 0.07001597 0.035007983 0.04200958 -0.035007983 0.10502396 0.11202555 -0.035007983 -0.14003193 -0.04901118 -0.06301437 0.04200958 0.09102076
000090 07 eb f8 1a 1a 15 13 1b 1f 0a 0c 0d 06 0b 07 fe
       0.04901118 -0.14703354 -0.056012776 0.18204153 0.18204153 0.14703354 0.13303034 0.18904312 0.21704951 0.07001597 0.08401916 0.09102076 0.04200958 0.07701757 0.04901118 -0.014003194
0000a0 0d fe 0b ff ee 17 f1 03 f5 08 fc f2 f5 f7 00 f8
       0.09102076 -0.014003194 0.07701757 -0.007001597 -0.12602875 0.16103673 -0.10502396 0.02100479 -0.07701757 0.056012776 -0.028006388 -0.09802236 -0.07701757 -0.06301437 0.0 -0.056012776
0000b0 12 14 0b 00 05 0c 04 0c 01 fc fe f7 f4 01 11 03
       0.12602875 0.14003193 0.07701757 0.0 0.035007983 0.08401916 0.028006388 0.08401916 0.007001597 -0.028006388 -0.014003194 -0.06301437 -0.08401916 0.007001597 0.119027145 0.02100479
0000c0 02 f6 f2 f3 07 18 06 04 0d 04 05 0f 0a 06 f6 08
       0.014003194 -0.07001597 -0.09802236 -0.09102076 0.04901118 0.16803832 0.04200958 0.028006388 0.09102076 0.028006388 0.035007983 0.10502396 0.07001597 0.04200958 -0.07001597 0.056012776
0000d0 ff 17 11 09 f8 00 0d 05 f2 fc 05 08 01 0a fc f8
       -0.007001597 0.16103673 0.119027145 0.06301437 -0.056012776 0.0 0.09102076 0.035007983 -0.09802236 -0.028006388 0.035007983 0.056012776 0.007001597 0.07001597 -0.028006388 -0.056012776
0000e0 fc 09 fc 0b 1b 05 f6 fa f8 ec fe ed 10 0f 02 f4
       -0.028006388 0.06301437 -0.028006388 0.07701757 0.18904312 0.035007983 -0.07001597 -0.04200958 -0.056012776 -0.14003193 -0.014003194 -0.13303034 0.11202555 0.10502396 0.014003194 -0.08401916
0000f0 0b 10 17 0c f4 f4 19 0d 04 20 fc 18 f7 02 12 15
       0.07701757 0.11202555 0.16103673 0.08401916 -0.08401916 -0.08401916 0.17503992 0.09102076 0.028006388 0.2240511 -0.028006388 0.16803832 -0.06301437 0.014003194 0.12602875 0.14703354
