exploring_tf_lite/models/signed_model_quant.tflite (tflite, 9792 bytes, 1 tensors)

sequential_1/dense_1/MatMul i1 [10, 784] scale=0.01123939 zero_point=0
0	0x03	0.03371817
1	0x01	0.01123939
2	0x07	0.07867573
3	0x02	0.02247878
4	0x01	0.01123939
5	0xfb	-0.05619695
6	0x04	0.04495756
7	0x02	0.02247878
8	0x01	0.01123939
9	0x08	0.08991512
10	0xfa	-0.06743634
11	0xfa	-0.06743634
12	0xf9	-0.07867573
13	0xfc	-0.04495756
14	0xfb	-0.05619695
15	0x03	0.03371817
16	0xfd	-0.03371817
17	0x06	0.06743634
18	0xfd	-0.03371817
19	0xfa	-0.06743634
20	0x02	0.02247878
21	0x07	0.07867573
22	0x07	0.07867573
23	0x02	0.02247878
24	0xfa	-0.06743634
25	0xfa	-0.06743634
26	0x07	0.07867573
27	0x01	0.01123939
28	0xfb	-0.05619695
29	0x00	0.0
30	0x07	0.07867573
31	0xff	-0.01123939
32	0xfe	-0.02247878
33	0x06	0.06743634
34	0xf9	-0.07867573
35	0xfa	-0.06743634
36	0xf5	-0.12363329
37	0xfa	-0.06743634
38	0xf5	-0.12363329
39	0x08	0.08991512
40	0x0c	0.13487267
41	0x0a	0.1123939
42	0xec	-0.2247878
43	0x03	0.03371817
44	0x03	0.03371817
45	0x02	0.02247878
46	0xf7	-0.101154506
47	0xf4	-0.13487267
48	0xf5	-0.12363329
49	0xfb	-0.05619695
50	0xff	-0.01123939
51	0x02	0.02247878
52	0x05	0.05619695
53	0xfc	-0.04495756
54	0x04	0.04495756
55	0x06	0.06743634
56	0xfe	-0.02247878
57	0x02	0.02247878
58	0x00	0.0
59	0x0f	0.16859084
60	0x0c	0.13487267
61	0xf5	-0.12363329
62	0xec	-0.2247878
63	0xef	-0.19106963
64	0xe5	-0.30346352
65	0xd1	-0.52825135
66	0xc8	-0.62940586
67	0xe6	-0.29222414
68	0xe9	-0.25850597
69	0xd6	-0.47205436
70	0xc7	-0.6406452
71	0xab	-0.95534813
72	0xd5	-0.48329377
73	0xb7	-0.82047546
74	0xb5	-0.8429542
75	0xd4	-0.49453315
76	0xc7	-0.6406452
77	0xdb	-0.41585743
78	0xdd	-0.39337865
79	0xe5	-0.30346352
80	0xec	-0.2247878
81	0xf9	-0.07867573
82	0xff	-0.01123939
83	0xff	-0.01123939
84	0xfe	-0.02247878
85	0x02	0.02247878
86	0x00	0.0
87	0x0b	0.12363329
88	0xf7	-0.101154506
89	0xf1	-0.16859084
90	0xeb	-0.23602718
91	0xe5	-0.30346352
92	0xf4	-0.13487267
93	0xec	-0.2247878
94	0xee	-0.20230901
95	0xfe	-0.02247878
96	0xf0	-0.17983024
97	0x04	0.04495756
98	0xfc	-0.04495756
99	0xfd	-0.03371817
100	0x02	0.02247878
101	0xf7	-0.101154506
102	0xe3	-0.3259423
103	0xe9	-0.25850597
104	0xe4	-0.31470293
105	0xdf	-0.37089986
106	0xdb	-0.41585743
107	0xe8	-0.26974535
108	0xf2	-0.15735146
109	0x05	0.05619695
110	0xf1	-0.16859084
111	0x06	0.06743634
112	0xfe	-0.02247878
113	0x02	0.02247878
114	0xf3	-0.14611207
115	0xf6	-0.1123939
116	0xeb	-0.23602718
117	0xe9	-0.25850597
118	0xe0	-0.35966048
119	0xeb	-0.23602718
120	0xf8	-0.08991512
121	0x05	0.05619695
122	0xfc	-0.04495756
123	0xfa	-0.06743634
124	0xfa	-0.06743634
125	0x01	0.01123939
126	0xf6	-0.1123939
127	0x05	0.05619695
128	0xf5	-0.12363329
129	0x07	0.07867573
130	0x01	0.01123939
131	0xf8	-0.08991512
132	0xf5	-0.12363329
133	0xf4	-0.13487267
134	0xfa	-0.06743634
135	0xf2	-0.15735146
136	0xe2	-0.3371817
137	0xe9	-0.25850597
138	0xf2	-0.15735146
139	0xf7	-0.101154506
140	0xfe	-0.02247878
141	0x07	0.07867573
142	0xef	-0.19106963
143	0xf7	-0.101154506
144	0xda	-0.4270968
145	0xdb	-0.41585743
146	0xf3	-0.14611207
147	0xf0	-0.17983024
148	0xfc	-0.04495756
149	0xfc	-0.04495756
150	0x05	0.05619695
151	0xfd	-0.03371817
152	0xfd	-0.03371817
153	0x09	0.101154506
154	0x05	0.05619695
155	0x0b	0.12363329
156	0x07	0.07867573
157	0x0b	0.12363329
158	0x15	0.23602718
159	0xfe	-0.02247878
160	0xff	-0.01123939
161	0xfd	-0.03371817
162	0xf9	-0.07867573
163	0xeb	-0.23602718
164	0xdf	-0.37089986
165	0xc2	-0.6968422
166	0xd9	-0.4383362
167	0xf2	-0.15735146
168	0x08	0.08991512
169	0xfe	-0.02247878
170	0xf3	-0.14611207
171	0xdf	-0.37089986
172	0xe1	-0.3484211
173	0xf0	-0.17983024
174	0x00	0.0
175	0x00	0.0
176	0xf1	-0.16859084
177	0xe9	-0.25850597
178	0xfa	-0.06743634
179	0xfd	-0.03371817
180	0xfa	-0.06743634
181	0x06	0.06743634
182	0x0e	0.15735146
183	0x0a	0.1123939
184	0x02	0.02247878
185	0x0d	0.14611207
186	0x0e	0.15735146
187	0x09	0.101154506
188	0x07	0.07867573
189	0x0a	0.1123939
190	0x18	0.26974535
191	0xf7	-0.101154506
192	0xcc	-0.5844483
193	0xa1	-1.067742
194	0xcb	-0.5956877
195	0xee	-0.20230901
196	0xfc	-0.04495756
197	0xea	-0.24726658
198	0xf2	-0.15735146
199	0xf3	-0.14611207
200	0xd3	-0.50577253
201	0xfd	-0.03371817
202	0xfc	-0.04495756
203	0xfd	-0.03371817
204	0xe7	-0.28098476
205	0x03	0.03371817
206	0x04	0.04495756
207	0x03	0.03371817
208	0x02	0.02247878
209	0x03	0.03371817
210	0x08	0.08991512
211	0x01	0.01123939
212	0x0d	0.14611207
213	0x18	0.26974535
214	0x13	0.2135484
215	0x07	0.07867573
216	0x09	0.101154506
217	0xfe	-0.02247878
218	0x08	0.08991512
219	0x09	0.101154506
220	0xef	-0.19106963
221	0xb5	-0.8429542
222	0xcb	-0.5956877
223	0xeb	-0.23602718
224	0x08	0.08991512
225	0xf0	-0.17983024
226	0xff	-0.01123939
227	0x06	0.06743634
228	0xd9	-0.4383362
229	0xf5	-0.12363329
230	0xf1	-0.16859084
231	0xfc	-0.04495756
232	0xf7	-0.101154506
233	0x04	0.04495756
234	0x06	0.06743634
235	0xf8	-0.08991512
236	0x0a	0.1123939
237	0x06	0.06743634
238	0x0f	0.16859084
239	0x09	0.101154506
240	0x20	0.35966048
241	0x13	0.2135484
242	0x0e	0.15735146
243	0x09	0.101154506
244	0x0a	0.1123939
245	0x00	0.0
246	0x08	0.08991512
247	0x16	0.24726658
248	0xfc	-0.04495756
249	0xa5	-1.0227845
250	0xb6	-0.83171487
251	0xe1	-0.3484211
252	0x00	0.0
253	0xf5	-0.12363329
254	0x0e	0.15735146
255	0xfb	-0.05619695
