exploring_tf_lite/models/simple_model_quant.tflite (tflite, 9792 bytes, 1 tensors)

sequential_3/dense_2/MatMul i1 [10, 784] scale=0.01243643 zero_point=0
-0.03730929 -0.07461858 -0.01243643 -0.07461858 0.01243643 -0.06218215 0.03730929 -0.06218215
-0.03730929 -0.03730929 0.02487286 -0.01243643 -0.02487286 -0.04974572 -0.02487286 0.06218215
0.01243643 0.01243643 -0.07461858 0.01243643 0.07461858 0.03730929 0.07461858 0.02487286
-0.02487286 0.07461858 0.03730929 -0.02487286 -0.02487286 0.07461858 -0.02487286 0.02487286
0.02487286 -0.06218215 0.06218215 -0.06218215 0.0 -0.11192787 -0.17411003 0.02487286
0.18654644 0.1243643 -0.16167359 0.13680074 0.06218215 0.09949144 -0.13680074 -0.19898288
-0.18654644 -0.14923716 -0.1243643 -0.09949144 0.04974572 -0.07461858 0.07461858 -0.03730929
-0.04974572 -0.07461858 -0.08705501 0.11192787 0.1243643 -0.07461858 -0.08705501 -0.14923716
-0.32334718 -0.41040218 -0.6093851 -0.2984743 -0.2984743 -0.46014792 -0.55963933 -0.89542294
-0.5969486 -0.7959315 -0.82080436 -0.52233005 -0.55963933 -0.4974572 -0.39796576 -0.27360147
-0.16167359 -0.07461858 0.06218215 0.01243643 0.01243643 0.0 0.04974572 0.01243643
-0.1243643 -0.21141931 -0.34822005 -0.32334718 -0.07461858 -0.27360147 -0.14923716 -0.03730929
-0.14923716 -0.01243643 -0.02487286 -0.14923716 0.03730929 -0.09949144 -0.32334718 -0.2984743
-0.26116502 -0.41040218 -0.46014792 -0.2860379 -0.26116502 0.01243643 -0.18654644 -0.08705501
0.01243643 -0.07461858 -0.06218215 -0.1243643 -0.31091076 -0.39796576 -0.3357836 -0.06218215
0.02487286 0.0 -0.11192787 -0.02487286 -0.14923716 0.0 -0.06218215 0.02487286
-0.04974572 0.09949144 -0.06218215 -0.07461858 -0.09949144 -0.18654644 -0.13680074 -0.18654644
-0.36065647 -0.19898288 -0.1243643 -0.22385573 0.08705501 -0.01243643 -0.14923716 -0.17411003
-0.44771147 -0.48502076 -0.18654644 -0.1243643 -0.08705501 -0.13680074 0.06218215 0.01243643
-0.09949144 0.08705501 0.08705501 0.08705501 0.07461858 0.1243643 0.17411003 -0.01243643
-0.03730929 -0.02487286 0.0 -0.21141931 -0.42283863 -0.6093851 -0.4974572 -0.16167359
-0.01243643 -0.02487286 -0.2860379 -0.3730929 -0.41040218 -0.18654644 -0.13680074 0.01243643
-0.16167359 -0.16167359 0.0 -0.03730929 -0.01243643 0.09949144 0.11192787 0.07461858
0.17411003 0.13680074 0.13680074 0.14923716 0.09949144 0.17411003 0.19898288 -0.07461858
-0.4974572 -0.8705501 -0.5347665 -0.13680074 0.06218215 -0.23629217 -0.19898288 -0.13680074
-0.42283863 -0.1243643 0.0 -0.14923716 -0.27360147 -0.07461858 0.04974572 0.01243643
0.08705501 0.0 0.09949144 0.02487286 0.13680074 0.14923716 0.2487286 0.11192787
0.06218215 0.07461858 0.1243643 0.18654644 -0.22385573 -0.82080436 -0.6342579 -0.2860379
0.13680074 -0.2487286 -0.03730929 0.08705501 -0.43527505 -0.17411003 -0.07461858 -0.07461858
-0.11192787 0.07461858 -0.04974572 -0.06218215 0.1243643 0.06218215 0.07461858 0.09949144
0.31091076 0.2487286 0.16167359 0.13680074 0.06218215 0.04974572 0.06218215 0.17411003
-0.02487286 -0.9327322 -0.89542294 -0.3730929 -0.1243643 -0.17411003 0.03730929 0.0
00000000: fdfa fffa 01fb 03fb fdfd 02ff fefc fe05
00000010: 0101 fa01 0603 0602 fe06 03fe fe06 fe02
00000020: 02fb 05fb 00f7 f202 0f0a f30b 0508 f5f0
00000030: f1f4 f6f8 04fa 06fd fcfa f909 0afa f9f4
00000040: e6df cfe8 e8db d3b8 d0c0 bed6 d3d8 e0ea
00000050: f3fa 0501 0100 0401 f6ef e4e6 faea f4fd
00000060: f4ff fef4 03f8 e6e8 ebdf dbe9 eb01 f1f9
00000070: 01fa fbf6 e7e0 e5fb 0200 f7fe f400 fb02
00000080: fc08 fbfa f8f1 f5f1 e3f0 f6ee 07ff f4f2
00000090: dcd9 f1f6 f9f5 0501 f807 0707 060a 0eff
000000a0: fdfe 00ef decf d8f3 fffe e9e2 dff1 f501
000000b0: f3f3 00fd ff08 0906 0e0b 0b0c 080e 10fa
000000c0: d8ba d5f5 05ed f0f5 def6 00f4 eafa 0401
000000d0: 0700 0802 0b0c 1409 0506 0a0f eebe cde9
000000e0: 0bec fd07 ddf2 fafa f706 fcfb 0a05 0608
000000f0: 1914 0d0b 0504 050e feb5 b8e2 f6f2 0300
