exploring_tf_lite/models/two_layer_perceptron.tflite (tflite, 24816 bytes, 2 tensors)

sequential_4/dense_7/MatMul i1 [10, 28] scale=0.011379142 zero_point=0
-0.19344541 0.26172027 0.26172027 -0.27309942 0.022758285 0.04551657 0.2162037 0.2958577
0.022758285 -0.38689083 0.40964913 0.36413255 -0.89895225 0.46654484 -0.46654484 0.28447855
0.45516568 -0.30723685 0.238962 0.011379142 0.17068714 -0.6486111 0.63723195 -0.19344541
-0.45516568 -0.55757797 -0.36413255 -0.07965399 -0.11379142 -0.3527534 -0.9899854 0.27309942
0.22758284 -0.39826998 -0.19344541 -0.955848 0.44378656 -0.31861597 -0.18206628 -0.4893031
0.46654484 -0.77378166 0.28447855 -0.63723195 0.477924 0.44378656 -0.19344541 -0.11379142
0.8420565 0.32999513 0.34137428 0.42102826 0.25034112 -0.63723195 -0.27309942 0.27309942
0.45516568 -0.11379142 0.0 -1.2403265 0.34137428 0.022758285 0.3755117 0.5120614
-1.1606725 0.034137428 -0.17068714 0.07965399 -0.3755117 0.54619884 0.38689083 -0.44378656
0.31861597 -0.22758284 -0.22758284 -0.716886 -0.25034112 0.12517056 0.09103314 0.5917154
-0.034137428 0.3527534 -0.034137428 0.04551657 0.36413255 -0.20482457 -0.68274856 0.5689571
-0.25034112 -0.3527534 -0.25034112 -0.3527534 -0.6486111 0.42102826 0.42102826 0.18206628
-0.27309942 0.18206628 -0.2162037 0.05689571 0.09103314 -0.38689083 -0.10241228 0.42102826
0.011379142 0.25034112 -0.18206628 0.40964913 0.17068714 0.39826998 0.38689083 -0.4324074
0.38689083 -0.3527534 0.5689571 0.27309942 -0.238962 0.28447855 -0.52344054 0.22758284
0.14792885 -0.31861597 -0.11379142 0.50068223 0.50068223 0.3527534 -0.4324074 -0.07965399
0.32999513 0.12517056 -0.19344541 -0.034137428 -0.955848 0.4893031 -0.63723195 -0.3755117
-0.32999513 0.11379142 -0.68274856 0.14792885 0.22758284 0.39826998 0.238962 -0.2958577
-1.1606725 0.65999025 0.30723685 -0.011379142 0.5120614 0.10241228 -0.27309942 0.39826998
-0.17068714 -0.31861597 -0.38689083 -0.14792885 -0.4893031 0.022758285 0.2162037 0.18206628
0.6713694 0.25034112 -0.46654484 -0.22758284 0.39826998 -0.6941277 -0.12517056 -0.14792885
-0.7055068 0.31861597 0.34137428 -0.7282651 0.011379142 -0.8079191 -0.034137428 0.22758284
0.30723685 0.32999513 -0.32999513 -0.36413255 0.45516568 0.32999513 -0.50068223 -0.6486111
0.39826998 0.38689083 -0.11379142 0.15930799 0.4324074 -0.07965399 0.15930799 0.12517056
-0.7510234 0.45516568 -1.2744639 0.2958577 0.32999513 -0.36413255 0.25034112 0.11379142
0.50068223 0.4324074 0.12517056 -0.09103314 0.11379142 -0.68274856 0.26172027 0.32999513
-0.3755117 -0.10241228 0.04551657 -0.20482457 -0.44378656 0.53481966 -0.76240253 0.45516568
-0.31861597 0.011379142 0.39826998 0.8306774 -0.91033137 0.14792885 0.17068714 -0.6486111
0.13654971 -0.18206628 0.46654484 -0.7510234 -0.54619884 -0.6258528 0.07965399 -0.53481966
-0.15930799 0.27309942 -0.6486111 -0.14792885 -0.068274856 0.22758284 0.32999513 0.3755117
0.022758285 -0.65999025 0.34137428 0.3755117 -0.8420565 0.3527534 -0.5689571 -0.39826998
-0.022758285 0.2958577 0.11379142 0.44378656 0.39826998 0.07965399 0.068274856 0.5803363
00000000: ef17 17e8 0204 131a 02de 2420 b129 d719
00000010: 28e5 1501 0fc7 38ef d8cf e0f9 f6e1 a918
00000020: 14dd efac 27e4 f0d5 29bc 19c8 2a27 eff6
00000030: 4a1d 1e25 16c8 e818 28f6 0093 1e02 212d
00000040: 9a03 f107 df30 22d9 1cec ecc1 ea0b 0834
00000050: fd1f fd04 20ee c432 eae1 eae1 c725 2510
00000060: e810 ed05 08de f725 0116 f024 0f23 22da
00000070: 22e1 3218 eb19 d214 0de4 f62c 2c1f daf9
00000080: 1d0b effd ac2b c8df e30a c40d 1423 15e6
00000090: 9a3a 1bff 2d09 e823 f1e4 def3 d502 1310
000000a0: 3b16 d7ec 23c3 f5f3 c21c 1ec0 01b9 fd14
000000b0: 1b1d e3e0 281d d4c7 2322 f60e 26f9 0e0b
000000c0: be28 901a 1de0 160a 2c26 0bf8 0ac4 171d
000000d0: dff7 04ee d92f bd28 e401 2349 b00d 0fc7
000000e0: 0cf0 29be d0c9 07d1 f218 c7f3 fa14 1d21
000000f0: 02c6 1e21 b61f cedd fe1a 0a27 2307 0633

sequential_4/dense_6/MatMul i1 [28, 784] scale=0.0065428917 zero_point=0
0.0785147 -0.058886025 -0.013085783 0.07197181 0.06542892 0.052343134 0.058886025 0.03271446
-0.0785147 -0.03925735 -0.0065428917 -0.0065428917 -0.019628676 -0.052343134 0.11777205 0.03271446
0.07197181 0.03925735 0.0065428917 -0.0785147 -0.058886025 -0.013085783 0.06542892 0.0065428917
-0.013085783 -0.0065428917 0.019628676 -0.03271446 -0.045800243 0.052343134 -0.0785147 0.013085783
-0.026171567 -0.03925735 -0.12431494 -0.20937254 -0.19628675 -0.21591543 -0.28134435 -0.22245832
-0.24208699 -0.3271446 -0.10468627 -0.11777205 -0.0785147 -0.17011519 -0.24208699 -0.17665808
-0.24208699 -0.06542892 -0.18974386 -0.15048651 0.0065428917 0.03925735 0.052343134 0.07197181
0.045800243 -0.0785147 0.019628676 -0.14394362 -0.09814338 0.03271446 -0.13740073 -0.28788725
-0.21591543 -0.091600485 -0.1570294 -0.13740073 -0.1635723 -0.18320097 -0.21591543 -0.14394362
-0.091600485 -0.019628676 -0.0065428917 -0.11122916 -0.17665808 -0.28134435 -0.1635723 -0.20282964
-0.045800243 -0.013085783 0.0065428917 0.058886025 -0.0785147 -0.0065428917 0.06542892 -0.10468627
-0.07197181 -0.17011519 -0.15048651 -0.0785147 -0.22245832 -0.1635723 0.013085783 0.026171567
-0.10468627 -0.26825857 -0.13085784 -0.12431494 -0.085057594 0.085057594 -0.0065428917 0.026171567
0.013085783 0.03925735 0.0065428917 -0.13740073 -0.091600485 0.0785147 -0.18320097 0.03271446
0.085057594 0.03925735 0.058886025 0.1635723 -0.013085783 -0.06542892 0.052343134 0.11122916
-0.20937254 -0.0785147 -0.1570294 -0.058886025 -0.045800243 -0.13740073 -0.091600485 -0.0785147
-0.09814338 -0.03925735 0.0 0.013085783 -0.091600485 -0.052343134 -0.013085783 0.03925735
0.21591543 0.2355441 0.0 -0.21591543 -0.013085783 0.045800243 0.03271446 0.11777205
-0.052343134 0.0785147 0.0785147 0.03271446 0.0065428917 -0.11122916 -0.026171567 0.085057594
0.12431494 0.10468627 0.013085783 0.052343134 0.13085784 0.03271446 0.026171567 0.058886025
0.045800243 -0.019628676 0.12431494 -0.013085783 -0.06542892 0.085057594 0.03925735 -0.07197181
-0.03925735 0.019628676 0.10468627 0.14394362 0.085057594 -0.013085783 -0.026171567 0.0
0.013085783 0.19628675 0.13085784 0.17011519 0.03271446 0.22245832 0.2551728 0.18974386
0.26171568 0.20937254 0.27480146 0.22900121 0.15048651 0.13740073 0.07197181 0.013085783
0.03925735 0.019628676 0.20937254 -0.11777205 -0.07197181 0.052343134 0.045800243 0.34023038
0.0065428917 0.0785147 0.12431494 0.03271446 0.17011519 0.11777205 0.091600485 0.20282964
0.1570294 0.28134435 0.18320097 0.18320097 0.17011519 0.11122916 0.24862988 0.20282964
0.22900121 0.091600485 0.11122916 0.058886025 -0.091600485 0.13085784 0.09814338 0.0
-0.20937254 0.21591543 -0.03925735 0.18974386 -0.0785147 0.03925735 0.013085783 -0.045800243
0.052343134 0.03271446 0.085057594 0.03271446 0.052343134 0.15048651 0.0785147 0.091600485
0.09814338 0.11122916 0.30097303 0.13740073 0.12431494 0.11777205 0.0065428917 0.13085784
0.058886025 0.28134435 0.14394362 -0.06542892 -0.06542892 0.15048651 -0.045800243 0.0065428917
00000000: 0cf7 fe0b 0a08 0905 f4fa ffff fdf8 1205
00000010: 0b06 01f4 f7fe 0a01 feff 03fb f908 f402
00000020: fcfa ede0 e2df d5de dbce f0ee f4e6 dbe5
00000030: dbf6 e3e9 0106 080b 07f4 03ea f105 ebd4
00000040: dff2 e8eb e7e4 dfea f2fd ffef e5d5 e7e1
00000050: f9fe 0109 f4ff 0af0 f5e6 e9f4 dee7 0204
00000060: f0d7 eced f30d ff04 0206 01eb f20c e405
00000070: 0d06 0919 fef6 0811 e0f4 e8f7 f9eb f2f4
00000080: f1fa 0002 f2f8 fe06 2124 00df fe07 0512
00000090: f80c 0c05 01ef fc0d 1310 0208 1405 0409
000000a0: 07fd 13fe f60d 06f5 fa03 1016 0dfe fc00
000000b0: 021e 141a 0522 271d 2820 2a23 1715 0b02
000000c0: 0603 20ee f508 0734 010c 1305 1a12 0e1f
000000d0: 182b 1c1c 1a11 261f 230e 1109 f214 0f00
000000e0: e021 fa1d f406 02f9 0805 0d05 0817 0c0e
000000f0: 0f11 2e15 1312 0114 092b 16f6 f617 f901
